E:\anaconda\envs\gpu_pytorch\python.exe D:/pycharm/目标检测方法复现/SSD/train.py
==> initializing coco 2017 train data.
loading annotations into memory...
Done (t=19.86s)
creating index...
index created!
Loaded 117266 train samples
==> initializing coco 2017 val data.
loading annotations into memory...
Done (t=0.74s)
creating index...
index created!
Loaded 5000 val samples
DataParallel(
  (module): SSD(
    (backbone): ModuleList(
      (0): Conv2d(3, 64, kernel_size=(3, 3), stride=(1, 1), padding=(1, 1))
      (1): ReLU()
      (2): Conv2d(64, 64, kernel_size=(3, 3), stride=(1, 1), padding=(1, 1))
      (3): ReLU()
      (4): MaxPool2d(kernel_size=2, stride=2, padding=0, dilation=1, ceil_mode=False)
      (5): Conv2d(64, 128, kernel_size=(3, 3), stride=(1, 1), padding=(1, 1))
      (6): ReLU()
      (7): Conv2d(128, 128, kernel_size=(3, 3), stride=(1, 1), padding=(1, 1))
      (8): ReLU()
      (9): MaxPool2d(kernel_size=2, stride=2, padding=0, dilation=1, ceil_mode=False)
      (10): Conv2d(128, 256, kernel_size=(3, 3), stride=(1, 1), padding=(1, 1))
      (11): ReLU()
      (12): Conv2d(256, 256, kernel_size=(3, 3), stride=(1, 1), padding=(1, 1))
      (13): ReLU()
      (14): Conv2d(256, 256, kernel_size=(3, 3), stride=(1, 1), padding=(1, 1))
      (15): ReLU()
      (16): MaxPool2d(kernel_size=2, stride=2, padding=0, dilation=1, ceil_mode=True)
      (17): Conv2d(256, 512, kernel_size=(3, 3), stride=(1, 1), padding=(1, 1))
      (18): ReLU()
      (19): Conv2d(512, 512, kernel_size=(3, 3), stride=(1, 1), padding=(1, 1))
      (20): ReLU()
      (21): Conv2d(512, 512, kernel_size=(3, 3), stride=(1, 1), padding=(1, 1))
      (22): ReLU()
      (23): MaxPool2d(kernel_size=2, stride=2, padding=0, dilation=1, ceil_mode=False)
      (24): Conv2d(512, 512, kernel_size=(3, 3), stride=(1, 1), padding=(1, 1))
      (25): ReLU()
      (26): Conv2d(512, 512, kernel_size=(3, 3), stride=(1, 1), padding=(1, 1))
      (27): ReLU()
      (28): Conv2d(512, 512, kernel_size=(3, 3), stride=(1, 1), padding=(1, 1))
      (29): ReLU()
      (30): MaxPool2d(kernel_size=3, stride=1, padding=1, dilation=1, ceil_mode=False)
      (31): Conv2d(512, 1024, kernel_size=(3, 3), stride=(1, 1), padding=(6, 6), dilation=(6, 6))
      (32): ReLU(inplace=True)
      (33): Conv2d(1024, 1024, kernel_size=(1, 1), stride=(1, 1))
      (34): ReLU(inplace=True)
    )
    (L2norm): L2Norm()
    (extra): ModuleList(
      (0): Conv2d(1024, 256, kernel_size=(1, 1), stride=(1, 1))
      (1): Conv2d(256, 512, kernel_size=(3, 3), stride=(2, 2), padding=(1, 1))
      (2): Conv2d(512, 128, kernel_size=(1, 1), stride=(1, 1))
      (3): Conv2d(128, 256, kernel_size=(3, 3), stride=(2, 2), padding=(1, 1))
      (4): Conv2d(256, 128, kernel_size=(1, 1), stride=(1, 1))
      (5): Conv2d(128, 256, kernel_size=(3, 3), stride=(1, 1))
      (6): Conv2d(256, 128, kernel_size=(1, 1), stride=(1, 1))
      (7): Conv2d(128, 256, kernel_size=(3, 3), stride=(1, 1))
    )
    (loc_layer): ModuleList(
      (0): Conv2d(512, 16, kernel_size=(3, 3), stride=(1, 1), padding=(1, 1))
      (1): Conv2d(1024, 24, kernel_size=(3, 3), stride=(1, 1), padding=(1, 1))
      (2): Conv2d(512, 24, kernel_size=(3, 3), stride=(1, 1), padding=(1, 1))
      (3): Conv2d(256, 24, kernel_size=(3, 3), stride=(1, 1), padding=(1, 1))
      (4): Conv2d(256, 16, kernel_size=(3, 3), stride=(1, 1), padding=(1, 1))
      (5): Conv2d(256, 16, kernel_size=(3, 3), stride=(1, 1), padding=(1, 1))
    )
    (conf_layer): ModuleList(
      (0): Conv2d(512, 324, kernel_size=(3, 3), stride=(1, 1), padding=(1, 1))
      (1): Conv2d(1024, 486, kernel_size=(3, 3), stride=(1, 1), padding=(1, 1))
      (2): Conv2d(512, 486, kernel_size=(3, 3), stride=(1, 1), padding=(1, 1))
      (3): Conv2d(256, 486, kernel_size=(3, 3), stride=(1, 1), padding=(1, 1))
      (4): Conv2d(256, 324, kernel_size=(3, 3), stride=(1, 1), padding=(1, 1))
      (5): Conv2d(256, 324, kernel_size=(3, 3), stride=(1, 1), padding=(1, 1))
    )
  )
)
1/120-0/14659 loss:0.23420436680316925 18.062547samples/seclr:[0.001] 2021-06-26 12:48:22.417825
1/120-100/14659 loss:28.102161407470703 29.746315samples/seclr:[0.001] 2021-06-26 12:48:49.311912
1/120-200/14659 loss:29.285268783569336 29.653942samples/seclr:[0.001] 2021-06-26 12:49:16.289775
1/120-300/14659 loss:18.417299270629883 29.562142samples/seclr:[0.001] 2021-06-26 12:49:43.351414
…
